data/flappybird-3/model.pt (torch, 17344 bytes, 4 tensors)

encoder.input_fc.weight f4 [256, 12]
000000 ee 52 1a 3a 83 2f 06 b9 9e 17 de b8 a5 2f 0b b9
       0.0005886991 -0.00012796935 -0.00010590184 -0.00013273822
000010 7b a1 0c b8 4f d5 ab b8 48 5c 3c b9 e6 d4 26 38
       -3.352899e-05 -8.193647e-05 -0.00017963455 3.977576e-05
000020 04 a9 41 b9 65 b3 e9 39 3f bd fe 38 e3 e7 06 38
       -0.00018468878 0.00044574882 0.00012146914 3.216405e-05
000030 ca a4 43 37 32 a8 a5 37 03 97 8a 37 a0 3d b9 b7
       1.1661274e-05 1.9747855e-05 1.6521202e-05 -2.2082415e-05
000040 31 e0 f1 b7 0b 64 45 b7 46 75 ea 37 63 50 20 b7
       -2.8833836e-05 -1.1765408e-05 2.7949583e-05 -9.55546e-06
000050 41 51 d5 b7 a9 e0 38 37 b3 f8 74 36 35 d3 69 b7
       -2.5429415e-05 1.1019562e-05 3.6503595e-06 -1.3937058e-05
000060 11 31 cc bd 02 05 83 bd 3d 53 3d bd 61 70 6c bd
       -0.09970296 -0.063974395 -0.04622196 -0.05772436
000070 de 67 c2 3d a6 bc 02 bd e8 5c c1 bd 8d d8 4e bd
       0.09492467 -0.03191819 -0.094415486 -0.050499488
000080 bc 54 5e bc d1 3d 99 bd 5c 7a aa 3d 4c f5 a8 bd
       -0.013570007 -0.07482494 0.083241194 -0.08249912
000090 2c 80 d5 bf 06 bd 58 3f 18 3d 04 3f d9 7d 58 be
       -1.667974 0.84663427 0.5165572 -0.21141757
0000a0 1d f4 83 be bf aa 59 be 02 66 91 3d 51 24 a0 be
       -0.2577218 -0.2125654 0.070995346 -0.31277707
0000b0 7e 14 0d 3e 42 71 d0 bf 57 65 50 be 5a f6 07 3e
       0.13777348 -1.6284564 -0.20351158 0.1327757
0000c0 ee 77 91 3c 07 01 8d bb 40 04 a2 bb 16 7f f7 3a
       0.017757382 -0.004303101 -0.0049443543 0.0018882479
0000d0 32 e6 b1 bb 60 9f 29 bb e5 ef 97 bb 45 af 99 3b
       -0.0054290527 -0.0025882348 -0.004636752 0.004690083
0000e0 cf 2b ae bb 76 d7 09 3b 3f a0 98 ba 22 b6 bd ba
       -0.005315281 0.0021032966 -0.0011644437 -0.0014473835
0000f0 ad 59 40 3a 4f 01 98 b8 6f f4 0f b9 be b3 2f b9
       0.00073375815 -7.2481685e-05 -0.00013728601 -0.0001675626
000100 b5 5e 3e ba 07 c1 ab b8 bb ed 73 b9 78 b7 33 b6
       -0.0007262037 -8.1898695e-05 -0.00023262847 -2.6779871e-06
000110 43 3c 5e b9 62 a1 08 3a e6 8b 91 36 23 0e fa b7
       -0.00021194019 0.0005212036 4.337623e-06 -2.9808905e-05
000120 6b 61 87 39 62 24 08 b9 31 31 e1 b8 cc 4a 5e b9
       0.0002582179 -0.00012983524 -0.00010737999 -0.00021199434
000130 e8 56 b9 b9 fe ee 68 b8 92 a7 0c b9 24 5b 42 b6
       -0.000353507 -5.553569e-05 -0.00013413865 -2.8961304e-06
000140 e7 49 19 b9 b1 58 ad 38 c3 7d c5 b9 bf 77 a7 39
       -0.00014618748 8.265803e-05 -0.00037668468 0.0003194194
000150 39 d2 8e b7 cf 18 aa 37 6b d2 e4 b7 d7 be 37 37
       -1.7025612e-05 2.0277132e-05 -2.7277702e-05 1.0952083e-05
000160 be 6d b3 b7 34 17 82 37 f6 e2 c6 b7 1b 50 a5 b7
       -2.1389566e-05 1.5508012e-05 -2.3709126e-05 -1.9706835e-05
000170 92 90 ec b7 44 d7 34 b7 df 0c cc b7 10 b5 c7 b7
       -2.8200713e-05 -1.07789565e-05 -2.4324689e-05 -2.3806962e-05
000180 34 7f b3 3d 0b 5a 36 3f 43 58 d3 3e 2f d3 be 3c
       0.087644964 0.71231145 0.41278276 0.02329406
000190 d3 66 9d 3e 30 22 aa be 65 25 d3 bb be c4 1a bf
       0.3074251 -0.33229208 -0.0064436668 -0.60456455
0001a0 6b e7 93 3c e8 03 99 bf 9b bb 24 be dc dc da bd
       0.018054685 -1.1954317 -0.16087191 -0.10686657
0001b0 40 17 e5 3d d0 e8 36 3f f5 67 d5 3e e7 3c 06 3d
       0.11186075 0.71448994 0.41680875 0.032772925
0001c0 6f f2 a4 3e c2 0e ae be e3 4f 84 ba 27 b6 17 bf
       0.32216212 -0.33995634 -0.0010094609 -0.5926232
0001d0 ff 3e be 3c 92 e4 99 bf d0 66 04 be 41 81 08 be
       0.023223398 -1.2022879 -0.12929845 -0.13330556
0001e0 d8 c2 29 37 08 f2 8d b8 ff ef 72 b8 5d 7f fa b7
       1.0118551e-05 -6.768486e-05 -5.792081e-05 -2.986163e-05
0001f0 51 af 55 b8 4c c4 54 b8 7a 3d 61 b8 b0 72 01 b8
       -5.0946433e-05 -5.0727554e-05 -5.3701435e-05 -3.0862808e-05
000200 27 c7 46 b8 e3 b8 d0 b7 66 a4 09 b8 71 d7 18 38
       -4.7392354e-05 -2.4881627e-05 -3.2816453e-05 3.644027e-05
000210 74 92 e6 bb 51 f0 fa bb 11 09 fc bb e1 ae fb bb
       -0.0070365015 -0.0076580425 -0.0076915105 -0.0076807593
000220 99 ce f8 bb 0f b5 fa bb 92 8d fd bb 78 0a 8b 37
       -0.0075929877 -0.0076509784 -0.0077378238 1.6574966e-05
000230 ba 75 fd bb 01 c6 ea bb b4 12 f2 bb 7c 85 f7 3b
       -0.0077349814 -0.007164717 -0.0073874835 0.0075537544
000240 4f 97 35 3f 46 b2 8a 3f 9b c4 1f 3f 43 4d 04 be
       0.70934004 1.0835655 0.6240937 -0.12920098
000250 96 2d 97 3e e7 58 09 bd cd 0c 94 bd fb 35 cc 3e
       0.29526967 -0.03353205 -0.07229004 0.39884934
000260 02 ee cf bd 58 85 39 c0 d6 25 6a be 14 80 00 3e
       -0.10152818 -2.8987637 -0.22865996 0.12548858
000270 94 36 01 37 e1 c0 9f b7 4e da 94 b7 f3 14 c9 b7
       7.701707e-06 -1.9044093e-05 -1.774463e-05 -2.3970822e-05
000280 ed c1 46 37 0e 6c ea b7 22 20 e1 b7 62 95 af 37
       1.18468715e-05 -2.794529e-05 -2.6837053e-05 2.0931187e-05
000290 a1 2a 83 37 b9 01 cc b6 ab 51 e2 37 66 79 ad b7
       1.5636268e-05 -6.0798743e-06 2.6979329e-05 -2.0679738e-05
0002a0 1a da 51 3d f4 7f 25 bc ec 59 93 bc b4 26 0e bd
       0.05123339 -0.010101307 -0.017987214 -0.03470488
0002b0 29 eb 1d be 76 8c 57 bd 30 48 d9 3c 56 4e 87 bd
       -0.15421738 -0.05262419 0.02652368 -0.06606738
0002c0 b7 59 22 bd c4 34 03 3e a7 d2 99 3b d7 bd cf 3c
       -0.03963634 0.12813097 0.004694301 0.025359077
0002d0 11 53 45 3f 62 c0 2d 3d 85 b5 48 3c fa 18 2a be
       0.77079874 0.0424198 0.012250309 -0.1661109
0002e0 4e 99 22 3d 18 84 0e 3e 51 8c de 3d fa 27 1f 3f
       0.039696984 0.13917577 0.10866607 0.62170374
0002f0 0d 3e 0d be 81 ce 03 bf b4 1d c3 be d7 82 4d 3e
       -0.13793202 -0.51486975 -0.381086 0.20069443
000300 d7 49 90 bb 3b 34 11 3c 57 ef 0d 3b 2b ab 85 bb
       -0.0044033336 0.00886255 0.002165755 -0.0040792427
000310 57 c9 c8 3a 52 47 c0 bb 0a 4f da bb a0 1e 0a 3a
       0.0015318793 -0.005867877 -0.006662254 0.00052688457
000320 c7 b8 ad bb 85 47 9c bc 39 78 33 bc ef 9a 28 3b
       -0.005301568 -0.019077072 -0.010953956 0.0025727113
000330 e1 f9 2d 3a b4 38 c4 b8 9e 17 19 b9 5d 8c 36 b9
       0.0006636661 -9.35657e-05 -0.00014600015 -0.00017409162
000340 6c 33 0e ba e6 48 8c b7 e9 29 5f b9 ad 0a e2 b7
       -0.00054245326 -1.6723247e-05 -0.0002128255 -2.694627e-05
000350 60 c5 84 b9 37 41 e6 39 e4 b5 5f b8 d4 d2 64 38
       -0.00025324058 0.00043917607 -5.3336742e-05 5.4555785e-05
000360 70 26 ff 39 91 f7 86 b9 14 92 56 b9 74 af 7d 38
       0.00048666028 -0.00025742923 -0.00020463049 6.0483304e-05
000370 62 74 fb b9 d7 7b 4c b9 bc 90 f1 b8 2e b0 17 37
       -0.00047961163 -0.0001950109 -0.000115187344 9.041321e-06
000380 2d 07 7a b9 a4 a1 aa 39 3a 54 17 39 21 c7 70 b9
       -0.00023844531 0.00032545358 0.00014431859 -0.00022962365
000390 de dc 32 b7 b5 0a ba 37 aa a3 de b6 20 dd f9 b7
       -1.0661051e-05 2.2177914e-05 -6.6351686e-06 -2.9786082e-05
0003a0 c0 90 86 37 a6 26 c5 37 22 01 ae b6 b4 c5 bf 36
       1.604145e-05 2.3502227e-05 -5.185736e-06 5.7152592e-06
0003b0 b5 01 08 b8 93 f4 d2 b6 8e 6b 30 37 fc d5 a7 35
       -3.2426517e-05 -6.28696e-06 1.05154595e-05 1.2504747e-06
0003c0 2a 0e e8 b9 ca 60 d8 37 19 df 1d b8 b5 0c d2 b6
       -0.0004426104 2.5794277e-05 -3.7639493e-05 -6.259967e-06
0003d0 94 10 3f 38 03 be 9e b8 a8 40 e3 b8 33 97 0e b9
       4.555339e-05 -7.5694195e-05 -0.00010836247 -0.00013598501
0003e0 ae 52 60 b8 25 d2 16 b9 9d 02 66 b9 73 d5 1c b8
       -5.3482763e-05 -0.000143834 -0.00021935483 -3.739209e-05
0003f0 f3 e3 45 bc cd 99 44 bc 47 07 40 bc e5 7f c5 bc
       -0.012078273 -0.01199956 -0.011720485 -0.024108836

encoder.input_fc.bias f4 [256]
000000 98 8a 14 b9 eb c8 d5 b7 9e d5 b6 bc 78 d7 54 3d
       -0.0001416601 -2.5485138e-05 -0.022318657 0.0519633
000010 74 68 bc bb 98 71 53 b9 61 8c 3e b9 7b c7 87 37
       -0.0057497565 -0.00020164845 -0.00018172107 1.6186144e-05
000020 ec a2 70 bc 00 34 00 bc 91 62 57 b8 01 73 fe bb
       -0.014687281 -0.007824898 -5.135179e-05 -0.0077651744
000030 4e aa 03 bc e6 a8 e8 b7 11 11 e5 bc aa 85 e9 bc
       -0.008036209 -2.7735205e-05 -0.02796224 -0.028506119
000040 8f 44 f1 bb 43 da 63 b9 f4 29 31 b9 db 40 b7 b7
       -0.007362909 -0.00021729716 -0.00016895664 -2.18455e-05
000050 6e f0 d2 b8 17 36 35 bc 01 2c e5 ba 20 4b 4d b9
       -0.00010058364 -0.011060259 -0.0017484428 -0.0001957831
000060 2f 88 1f b9 51 c6 32 b8 70 a2 f6 bc 96 ff 79 3d
       -0.00015214154 -4.2623204e-05 -0.030106753 0.06103476
000070 12 d8 84 ba 62 3b 67 b8 d9 86 d6 b7 24 e3 7b b8
       -0.0010135195 -5.5129996e-05 -2.5573581e-05 -6.0054605e-05
000080 69 ab 38 bb f0 41 d3 b7 7f 13 94 36 84 9e 4c b9
       -0.002817834 -2.5183865e-05 4.4130134e-06 -0.00019514008
000090 9b d2 22 b9 47 2a f0 b8 d9 70 14 b9 38 e4 3b b9
       -0.0001552798 -0.000114519666 -0.00014156419 -0.00017918728
0000a0 7c 0f 7d b8 67 3d 44 b7 88 9c c5 b7 14 dc e8 b8
       -6.033432e-05 -1.1696807e-05 -2.355712e-05 -0.00011103615
0000b0 85 64 dc b8 20 93 73 b7 81 99 1d b9 2d e1 cf b7
       -0.00010509141 -1.4518184e-05 -0.00015029871 -2.4781179e-05
0000c0 47 0e 10 bc a8 d3 4c b9 06 f8 83 b7 10 31 21 b9
       -0.0087924665 -0.00019533804 -1.5731912e-05 -0.00015372434
0000d0 40 33 4a b9 db 05 f6 3c ed 8b e4 3d bf 33 4e bb
       -0.00019283313 0.030032089 0.11159501 -0.0031463949
0000e0 1b 3b 07 b9 50 cd 7d 3e e2 1b c2 3d 42 54 15 b9
       -0.00012896622 0.24785352 0.094779745 -0.00014241136
0000f0 59 0f e0 bd cb 14 86 3e 88 29 4e b9 00 b5 c7 b6
       -0.10940427 0.2618774 -0.00019661163 -5.9517333e-06
000100 dd a8 d1 37 e4 df 42 3e 15 8b a5 b6 5d f7 3e b9
       2.4993375e-05 0.1903072 -4.9335745e-06 -0.00018211962
000110 50 df ae b7 f8 1a 31 b7 8c b0 08 b9 fc 82 4a ba
       -2.0846404e-05 -1.0556301e-05 -0.0001303574 -0.00077252067
000120 ad 64 a9 b7 b6 b4 0c b9 84 13 03 3d d3 2a cd b7
       -2.019325e-05 -0.0001341876 0.032001033 -2.4457846e-05
000130 bf 73 26 bd f6 93 9e 37 8d a8 2d 3e 40 15 30 b6
       -0.040637728 1.8903967e-05 0.16958828 -2.6238413e-06
000140 c5 6d 54 ba 7d ae b5 b9 40 5a d4 b7 95 26 84 bd
       -0.0008103515 -0.00034653014 -2.5314395e-05 -0.064526714
000150 4d 1f da b7 00 44 97 ba 3c d1 fc b9 41 97 4f b9
       -2.60022e-05 -0.0011540651 -0.00048221077 -0.00019797405
000160 b1 57 1d bd ce 5d 59 be 51 d2 5f 3d 88 55 4b 3e
       -0.038413707 -0.2122719 0.054643933 0.19856846
000170 58 4c 6b b9 7b ec 78 ba 67 f2 39 b9 86 75 ee b8
       -0.00022439787 -0.00094956876 -0.00017733277 -0.00011370615
000180 0a 8e 4c b9 8b f9 1a 3e e8 2b 43 bb be 5f 6e b9
       -0.0001950787 0.15134256 -0.002978081 -0.00022733115
000190 c7 fb 85 bb 6b 6e d6 3d f1 59 37 b9 c0 39 73 b9
       -0.004088852 0.10470279 -0.00017485746 -0.000231958
0001a0 93 53 9e b7 c6 7a ea bb 5b 91 bb b9 58 36 ba 35
       -1.8873985e-05 -0.007155749 -0.00035775718 1.3873896e-06
0001b0 ca 55 de 3b 90 e1 d7 bb 06 5c 10 b8 2e 5c 4e b9
       0.006785129 -0.0065881684 -3.441798e-05 -0.0001968003
0001c0 d3 7e b3 b9 81 47 8d b7 91 83 84 b7 d8 d9 6e 3e
       -0.00034236032 -1.6841806e-05 -1.5796892e-05 0.23325288
0001d0 fc 2b a6 3c 88 cf e7 bd 58 ca 24 3e 75 b1 be b9
       0.020284645 -0.1131888 0.16092813 -0.0003637184
0001e0 6f fe 3e b7 5d 4b 4d 3e 46 a0 7a 3d 4a 8b cc b7
       -1.1384122e-05 0.2004828 0.061188005 -2.4383557e-05
0001f0 6f 40 a1 b9 57 f9 1d 3e b6 e2 33 bd b1 91 f9 b6
       -0.0003075632 0.15427147 -0.04391738 -7.437739e-06
000200 2c 8f d4 b9 38 5f 9e b7 a2 77 4e 3d 3b f1 e2 3d
       -0.00040542462 -1.8879407e-05 0.05040706 0.11081167
000210 76 91 5a b8 d2 d1 c1 b7 51 d5 41 35 28 ba de b8
       -5.211072e-05 -2.3105098e-05 7.220852e-07 -0.00010620459
000220 65 99 a6 b9 cf ed 0b bb a2 91 b6 ba 20 46 f9 3d
       -0.00031776275 -0.0021351462 -0.00139289 0.121715784
000230 38 12 42 b9 57 9f 8a 3e 43 2d 93 b7 18 44 fd bb
       -0.00018508069 0.27074692 -1.7544842e-05 -0.0077290647
000240 2d 74 73 b9 31 84 e2 b7 80 4f 95 b7 ac f2 f1 b7
       -0.00023217565 -2.7002856e-05 -1.7799204e-05 -2.8842442e-05
000250 35 4a b7 b7 06 4b 9f b8 9b 8c f8 3d 8d 93 3e b9
       -2.1849855e-05 -7.595685e-05 0.12136193 -0.00018174779
000260 5b a3 56 b7 0b 8f 4d b9 12 f4 1b ba 1f df 75 bc
       -1.2793428e-05 -0.00019603611 -0.000594915 -0.0150068095
000270 19 a4 07 35 52 e9 4e 36 2c be 38 b9 3f 61 47 3e
       5.053021e-07 3.0832202e-06 -0.00017618452 0.1947069
000280 eb 72 e1 b7 3a 2a 85 ba 4d d2 6b 3e 08 04 30 b7
       -2.6875603e-05 -0.0010159679 0.23029442 -1.0491356e-05
000290 a1 99 35 3e 38 62 15 b8 c1 79 32 3d 5e 82 0a bd
       0.17734386 -3.561584e-05 0.043573145 -0.033815734
0002a0 bc a9 42 ba de e8 d5 bc 72 16 99 b9 08 b8 8c bb
       -0.0007425805 -0.026112016 -0.00029199157 -0.004294399
0002b0 26 19 c1 b8 7e b3 99 b8 1b 39 45 3d 26 c8 c5 b9
       -9.2076414e-05 -7.3290415e-05 0.048150163 -0.0003772389
0002c0 e4 c7 0f b9 36 b3 89 bd fa 3b 2e b9 ea ff a0 bb
       -0.00013712008 -0.06723635 -0.00016616276 -0.00491332
0002d0 8e 7f 20 b9 dc 37 f6 35 2d 23 01 b9 55 e4 80 3e
       -0.00015306307 1.8344685e-06 -0.00012315503 0.25174204
0002e0 a5 d2 9c 36 7e 58 2c b9 cf f1 59 3e 75 fc 96 37
       4.6736845e-06 -0.00016436164 0.21283649 1.7998953e-05
0002f0 99 b3 51 b9 7b bb ed b9 b2 83 4f 3b 02 72 69 b7
       -0.00019998699 -0.00045343846 0.003166419 -1.3914427e-05
000300 66 ed ff bd 2d d7 28 b8 47 1b 07 b9 e2 18 32 37
       -0.12496452 -4.025472e-05 -0.00012884765 1.061542e-05
000310 4e bd 4e b9 2d cb c3 b7 2c 4d 58 b9 2b d8 00 b9
       -0.00019716212 -2.3340423e-05 -0.00020628114 -0.0001228756
000320 d5 7a 28 b9 c8 f6 02 b8 e1 36 50 b9 20 31 69 b9
       -0.00016067487 -3.122425e-05 -0.0001985687 -0.00022238912
000330 cb 5a cf bc ef 79 5e b9 f9 d2 97 b8 9b 53 41 b9
       -0.025311848 -0.00021216994 -7.239538e-05 -0.0001843706
000340 fe e2 44 b9 48 86 f5 b6 82 7a 49 bd 9f 98 51 b9
       -0.00018776578 -7.3172014e-06 -0.0491891 -0.00019988649
000350 73 05 52 b7 9a 4f 48 b9 11 e9 20 37 8e 50 16 b9
       -1.2518244e-05 -0.0001910314 9.591008e-06 -0.00014335124
000360 a7 96 cb b7 2e 14 ee b8 d5 67 82 3d a0 8a 54 b9
       -2.4269639e-05 -0.00011352483 0.06367461 -0.00020269537
000370 70 41 59 b9 c2 18 20 bd 49 bf be bc 4b 7d 32 b9
       -0.0002071911 -0.03908611 -0.023284571 -0.00017022078
000380 11 d9 ce b7 8b 67 83 37 c3 99 62 b7 81 23 04 bc
       -2.4658193e-05 1.5664633e-05 -1.350645e-05 -0.008065105
000390 03 f0 41 b9 30 43 a2 bb 8d fe 2e b9 06 83 ed b7
       -0.00018495326 -0.004951857 -0.0001668876 -2.8313614e-05
0003a0 1e 6d 28 b9 59 77 b7 b7 54 d1 89 3e 5a 0c 72 be
       -0.00016062378 -2.1870876e-05 0.26917517 -0.23637524
0003b0 d1 db 8e 3e 22 51 a2 b7 55 e2 84 bd 06 6c da bb
       0.27902082 -1.9349685e-05 -0.06488482 -0.0066657094
0003c0 51 3f ba bc 8f 23 9c b7 0c c3 88 b7 76 4d 14 be
       -0.02273527 -1.8613207e-05 -1.630329e-05 -0.14482674
0003d0 7e 37 56 b9 cd 07 9e bb eb 03 03 3e 8b 83 81 3d
       -0.00020429303 -0.0048227073 0.12794463 0.06323918
0003e0 7e cd 72 b7 8f ea 50 b9 0f 70 d2 3c 9c 5b d1 36
       -1.4472169e-05 -0.00019923806 0.0256882 6.23935e-06
0003f0 ac a3 f4 bd dd 1c 18 ba a3 c6 93 3d d8 2d 85 bb
       -0.119452804 -0.0005802641 0.07215621 -0.004064303

output_fc.weight f4 [2, 256]
000000 2a 7a 4e 3a 1f 3e 99 36 3c 51 ad bc bc 26 80 40
       0.000787648 4.566987e-06 -0.0211569 4.0047283
000010 c7 dd 49 3c 47 a4 da 39 6f 85 9f 38 08 2c 9e 35
       0.012320942 0.00041702596 7.606565e-05 1.1784732e-06
000020 cb 6c ca c0 9e d9 d1 c0 33 59 12 35 34 82 bb bb
       -6.3257804 -6.5578146 5.451904e-07 -0.0057223085
000030 35 4c 75 40 c6 16 fc 35 fe d7 91 3b a1 12 6a be
       3.8327763 1.8782091e-06 0.004450797 -0.22858669
000040 52 9a 70 bd 36 db f8 39 ff b4 b7 38 60 21 01 b7
       -0.05874092 0.0004746557 8.759833e-05 -7.69677e-06
000050 bf 59 5f b7 e1 d9 99 bb f7 39 bd 3a cf 1c 50 3a
       -1.3312731e-05 -0.0046951626 0.001443683 0.0007938863
000060 f2 40 40 ba 86 43 0a ba f5 1b 36 bb 32 16 5b bf
       -0.00073338964 -0.0005274344 -0.002778766 -0.8558074
000070 62 e5 82 39 50 2d 56 ba ac 8b 28 37 17 0c 01 b5
       0.00024966436 -0.0008170204 1.00461e-05 -4.807384e-07
000080 19 8e 56 3d 78 10 c0 36 e6 7d 6e 35 57 de f7 39
       0.05238161 5.723963e-06 8.8845115e-07 0.00047277167
000090 ef 0e 8d ba 30 17 01 ba 1c 3b 01 37 d8 4b 4a 3a
       -0.0010761897 -0.00049244147 7.702762e-06 0.000771699
0000a0 3d be 04 ba af 55 eb b5 72 13 3e b3 c7 00 8d 37
       -0.0005063748 -1.7533802e-06 -4.4255508e-08 1.6808872e-05
0000b0 5b 58 d9 b8 ec f6 cf b2 fd 47 45 39 2d ec 38 b6
       -0.00010363824 -2.4210259e-08 0.00018814202 -2.755561e-06
0000c0 c3 d1 8e c0 e0 a0 f6 39 51 60 bb 36 3f 85 87 ba
       -4.4631057 0.00047040638 5.584247e-06 -0.0010339393
0000d0 51 41 54 3a c2 32 a1 c0 f2 b2 0b be 66 de a6 3a
       0.0008096891 -5.037446 -0.13642481 0.0012731075
0000e0 2f 26 5a 38 a2 84 93 3e e7 dd 0b c1 8b a3 4a 3a
       5.201081e-05 0.28812128 -8.741675 0.0007730058
0000f0 d3 d7 e4 40 d2 4c 01 3f 71 4e 27 3a 9f 97 79 36
       7.1513457 0.50507843 0.0006382233 3.7192146e-06
000100 f7 5c 75 36 c9 4d 52 3e 6c 25 a0 34 04 73 59 3a
       3.6561958e-06 0.20537485 2.982955e-07 0.0008295032
000110 5b 08 b4 b6 8e c9 8c 36 6a 9a 4f b9 24 53 bc 3a
       -5.3653907e-06 4.195789e-06 -0.00019798582 0.001436804
000120 de 2c 09 b5 78 78 87 39 38 3e 85 bf b3 89 04 38
       -5.110177e-07 0.00025838963 -1.0409613 3.1599495e-05
000130 39 27 ad bf 93 84 53 35 71 6f 57 3f 85 0d a5 36
       -1.3527595 7.8796546e-07 0.8415442 4.918957e-06
000140 28 2a 20 3b b1 66 9c 3a 8c ee 6d 36 9d 7d 25 3e
       0.002443919 0.001193246 3.5454605e-06 0.16161199
000150 03 10 99 b6 4a 2f 58 3b 29 8a 6d 3a 73 02 58 3a
       -4.5616193e-06 0.003298717 0.000906142 0.0008240111
000160 2e d7 0f bd 21 f6 01 40 fa a1 bf c0 e3 36 9c 3f
       -0.03511732 2.0306475 -5.9885225 1.220425
000170 a7 26 1e 3a f4 f5 c6 bb 58 dc 4a 3a f0 2c 21 b9
       0.00060329813 -0.0060718004 0.0007738522 -0.00015370897
000180 1f c8 49 3a b1 a8 27 3e b3 4b a2 3a 53 f6 11 3a
       0.0007697362 0.16372944 0.0012382179 0.0005568016
000190 17 76 80 3a c1 75 a2 be 52 d9 1a 3a 7a 40 1b 3a
       0.0009800819 -0.31730464 0.0005907017 0.00059223885
0001a0 5d 59 02 b5 ae df ad 3c 27 90 0f 3a 49 89 5b b6
       -4.8558815e-07 0.021224823 0.00054764975 -3.2713453e-06
0001b0 d8 52 9a 40 df 5f 8b 3c df d8 b1 36 2f 06 52 3a
       4.822613 0.017013488 5.300258e-06 0.00080117857
0001c0 13 64 9d b7 d9 b8 63 b6 cc 20 2b b6 99 4f 99 3e
       -1.876246e-05 -3.3933231e-06 -2.5500076e-06 0.2994354
0001d0 12 3e e6 3d 54 22 85 bf 9d 39 9d bf a4 c9 8e 3a
       0.11242308 -1.0401101 -1.2283207 0.0010893834
0001e0 3f 0a c6 b5 7d 89 6a 3e 37 b0 fd be dd e5 d3 b5
       -1.4755132e-06 0.2290401 -0.49548504 -1.5787624e-06
0001f0 d3 a0 b3 3a 6b 72 76 3e d9 1f 4f bf 93 e6 eb b4
       0.0013704546 0.24067084 -0.8090797 -4.3939926e-07
000200 ea 05 47 3a f1 7a cd 35 af 97 c7 bf 18 af ad be
       0.0007592129 1.5309471e-06 -1.5593165 -0.33922648
000210 17 68 11 ba 9d b7 94 36 c3 40 48 36 2b 0d 1d ba
       -0.00055468216 4.432119e-06 2.9840019e-06 -0.0005991037
000220 30 be 07 ba ad b8 c2 3b 64 91 fd 3a 42 d5 40 be
       -0.00051781815 0.005942425 0.0019345698 -0.18831351
000230 cd 3c 17 3a 32 18 c7 3e 6d 41 24 36 4d 36 c0 bb
       0.0005769253 0.38885647 2.4475987e-06 -0.005865848
000240 64 e8 5c 3a 9b 84 64 b5 3e 7c c5 b6 09 89 0a 34
       0.0008426963 -8.5129585e-07 -5.885521e-06 1.2902105e-07
000250 5c 55 53 ba 7b c3 14 ba 58 d3 aa 3f 99 9d 9c ba
       -0.0008061731 -0.0005674881 1.3345747 -0.0011948823
000260 6c 89 78 b6 84 22 24 3a 49 b1 4f 3a 5f f5 92 3c
       -3.703487e-06 0.0006261247 0.0007922841 0.017939268
000270 14 6c 44 36 24 cf a8 b6 2b 94 49 3a 3c 0d 53 3e
       2.9269186e-06 -5.0309045e-06 0.000768962 0.20610517
000280 a4 00 aa 36 a5 d9 1f 3b 40 62 3b 3f e7 ef 38 b6
       5.0664694e-06 0.00243912 0.7319679 -2.7557778e-06
000290 73 a9 45 3e f9 c2 90 b9 fe 49 6c bb ff e3 dc c0
       0.19302921 -0.00027611086 -0.0036054845 -6.9028316
0002a0 c3 5d 9b b8 c7 df da c0 c7 64 80 3a 96 14 c2 3a
       -7.4084404e-05 -6.8398166 0.0009795659 0.001480716
0002b0 0f d9 b7 b9 bd da a1 b6 a3 dd 83 bf 8f e2 91 b9
       -0.000350662 -4.8236384e-06 -1.0302013 -0.00027825354
0002c0 6e f2 61 39 11 20 9e c0 75 67 55 3a e8 a8 19 3c
       0.00021547984 -4.9414144 0.00081407215 0.009378649
0002d0 bb 83 1f 3a f3 f9 c0 36 53 dd fd b9 d4 7d ab 3e
       0.0006084998 5.751144e-06 -0.0004842082 0.33494437
0002e0 43 f9 c6 b6 44 0f f0 39 11 2b 6c 3e b0 3c 6b b7
       -5.9298777e-06 0.0004578774 0.23063304 -1.4021221e-05
0002f0 e1 b0 58 3a 69 81 3c 38 16 65 17 3f f9 09 1d 37
       0.0008266103 4.4943215e-05 0.5913862 9.360251e-06
000300 ad a6 e4 40 b8 a2 32 3a ba f6 28 39 94 00 9b 36
       7.145346 0.0006814408 0.00016113641 4.6194273e-06
000310 47 2a 60 3a 60 73 4f 36 66 69 30 3a 8c f8 b9 b9
       0.00085512217 3.091256e-06 0.0006729573 -0.00035471132
000320 22 be 45 39 05 37 8b b5 71 35 be 39 63 80 48 3a
       0.00018858214 -1.037232e-06 0.0003627944 0.00076485256
000330 69 2d de bd c9 d9 ba 39 c6 12 09 ba 35 a4 fa 39
       -0.10848505 0.00035638947 -0.0005228933 0.0004780606
000340 2f 99 45 3a 61 3d 90 36 cf 37 c8 c0 7f 85 0b 3a
       0.000753778 4.29868e-06 -6.2568126 0.00053223217
000350 b3 5d 1c 35 5e 4e 14 3a 0d d4 94 b3 1f 9d 1c ba
       5.825088e-07 0.00056574296 -6.930359e-08 -0.00059743406
000360 54 5d 25 36 d0 89 34 39 1b b0 ac 3e 93 78 5a 3a
       2.464124e-06 0.00017217477 0.33728108 0.0008334007
000370 e7 70 b0 39 2c 2f 7a c0 68 94 c4 c0 c4 9f 2e 3a
       0.00033653455 -3.9091291 -6.143116 0.000666138
000380 49 ed 93 b6 8d d1 2f 34 04 fe cd 36 0f 24 34 bd
       -4.408565e-06 1.6374379e-07 6.1390474e-06 -0.0439797
000390 10 91 12 3a c5 d9 29 3c 8c 6c 43 ba 6e c4 67 36
       0.0005591074 0.010366862 -0.00074548344 3.453602e-06
0003a0 8e 6c 54 3a c8 6b 93 36 7c 64 04 3f 6c 61 84 3c
       0.0008103334 4.393489e-06 0.51715827 0.016159736
0003b0 26 54 b4 3e e1 d5 b2 36 78 62 89 c0 33 1e ef bc
       0.3522045 5.329712e-06 -4.29327 -0.029189205
0003c0 3a 63 9c 3c d7 74 92 b6 b0 ab 8e b6 42 4f 4a 3f
       0.019090284 -4.364741e-06 -4.251917e-06 0.7902719
0003d0 e4 0c 37 3a 83 e0 3b 3b 1b 22 a9 bf 07 28 ae 3f
       0.0006982817 0.0028667755 -1.3213533 1.3605965
0003e0 d7 a7 5b b6 75 01 56 3a 20 a6 8a 3f 20 9b 06 36
       -3.2731239e-06 0.0008163669 1.0831947 2.005785e-06
0003f0 87 05 75 c0 da ca 2e b7 cc 9d 75 be 98 41 bf 3b
       -3.8284624 -1.0418438e-05 -0.23985976 0.005836677

output_fc.bias f4 [2]
000000 74 bd a6 3e 17 65 3c 3e
       0.32566416 0.18397938
